closed/kai_jiang/code/vww/graph_quantization/models/vww_96_float.onnx (onnx, 913530 bytes, 56 tensors)

model/activation_9/Relu;model/batch_normalization_9/FusedBatchNormV3;model/depthwise_conv2d_4/depthwise;model/depthwise_conv2d_4/BiasAdd;model/depthwise_conv2d_5/depthwise;model/depthwise_conv2d_4/BiasAdd/ReadVariableOp/resource f4 [64]
0	0xbe06bb46	-0.13157377
1	0xbf272aa4	-0.6529944
2	0x3f49a599	0.78768307
3	0xbf3399e4	-0.70156693
4	0xbe5ff16d	-0.2186944
5	0xbec53935	-0.38520208
6	0xbdbd2140	-0.092348576
7	0xbf265a8c	-0.64981914
8	0xbf03f017	-0.51538223
9	0x3f16be3c	0.58884025
10	0xbe4ca653	-0.19985323
11	0xbf28bfb3	-0.6591751
12	0xbf8dbe40	-1.1073685
13	0xbd816350	-0.063177705
14	0x3e926fec	0.28601015
15	0xbe91408e	-0.28369564
16	0xbe35458a	-0.17702308
17	0xbf302cb4	-0.6881821
18	0x3e8320a2	0.25610834
19	0x3f83de99	1.0302306
20	0xbee76602	-0.45195013
21	0xbf0fddfa	-0.56198084
22	0x3f761b18	0.9613509
23	0x3f875d24	1.0575299
24	0xbcc044fe	-0.023470398
25	0xbedbabaa	-0.42904407
26	0xbf1fbd2d	-0.62398034
27	0x3f613bd4	0.87981915
28	0x3fe3bb90	1.7791615
29	0x3df8c5ce	0.12147103
30	0xbf02688e	-0.5094079
31	0x3e281e73	0.16417865
32	0xbd0de8ba	-0.034645773
33	0x3f68e45d	0.90973455
34	0x3f2aa421	0.6665669
35	0xbf0eabdc	-0.55730987
36	0x3e7a7d12	0.24461773
37	0xbf0107e2	-0.50402653
38	0xbfc93a14	-1.5720849
39	0xbe2a3f4b	-0.16625707
40	0x3fafea13	1.3743309
41	0xbc92ecf0	-0.017935246
42	0xbe63a75c	-0.22231811
43	0xbf30f3ef	-0.69122213
44	0xbf2a972a	-0.6663691
45	0x3f7a1db8	0.977016
46	0xbed0c06c	-0.40771806
47	0xbeaa4454	-0.33255255
48	0x3b4fb0a0	0.003169097
49	0x3d796be4	0.06089391
50	0xbd59a980	-0.053140163
51	0xbd662edf	-0.056197044
52	0x3e4d8fbe	0.20074365
53	0x3f7e1851	0.99255854
54	0x3f4b8ae1	0.7950879
55	0xbde2c188	-0.110720694
56	0xbefe207a	-0.49634153
57	0xbe899af4	-0.26876032
58	0x3f405343	0.7512705
59	0xbed047e6	-0.40679854
60	0xbe2e8bd7	-0.17045532
61	0x3e313e06	0.17308816
62	0x3cbb1310	0.022836238
63	0x3f2f12b4	0.68387914

model/activation_11/Relu;model/batch_normalization_11/FusedBatchNormV3;model/depthwise_conv2d_5/depthwise;model/depthwise_conv2d_5/BiasAdd;model/depthwise_conv2d_5/BiasAdd/ReadVariableOp/resource f4 [64]
0	0xbe7f94a7	-0.2495905
1	0x3f9820ae	1.1884973
2	0xbd49f683	-0.049307358
3	0x3fc75bf0	1.5574932
4	0xbf33a48c	-0.70172954
5	0xbd9c0d66	-0.07619743
6	0x3d078681	0.033087257
7	0x3dbb9cbb	0.09160753
8	0x3fffcf0b	1.998506
9	0xbe60f51e	-0.21968505
10	0xbf526e12	-0.82199204
11	0x3f92ee1a	1.1478913
12	0x3fd6ce4c	1.6781707
13	0xbefad424	-0.48989975
14	0xbf082c0d	-0.53192216
15	0xbe5ebece	-0.21752474
16	0x3fca6bb1	1.5814115
17	0xbf63a2b8	-0.88920164
18	0xbf38925f	-0.72098345
19	0x3fc1e7a9	1.5148822
20	0x3c30e300	0.0107963085
21	0xbdeef964	-0.11668661
22	0xbf0f064e	-0.55868995
23	0xbedb72b4	-0.4286095
24	0xbed9ec8e	-0.4256329
25	0x3cf5fe6e	0.030028548
26	0xbf4c9143	-0.7990915
27	0xbf00991b	-0.5023362
28	0x406121ad	3.5176804
29	0xbe9fa36f	-0.31179377
30	0xbf5b000d	-0.8554695
31	0x3fb1f402	1.390259
32	0xbf08c934	-0.5343201
33	0xbdea8212	-0.1145059
34	0xbec6ef33	-0.3885437
35	0xbda5db75	-0.08098499
36	0x3fa57083	1.2924961
37	0xbec07c38	-0.3759477
38	0x3fdb23b5	1.7120272
39	0xbebe78fe	-0.37201685
40	0x3fcf15cd	1.6178528
41	0xbec308c1	-0.38092616
42	0xbf42c456	-0.76080835
43	0xbfa974b3	-1.3238739
44	0x3fd6847c	1.6759181
45	0x3ff0d58d	1.881517
46	0xbf1f9a68	-0.6234498
47	0xbf04c35c	-0.51860595
48	0x401a6533	2.4124267
49	0xbdc63960	-0.09678912
50	0x3c3c03c8	0.011475511
51	0xbd5fa0e7	-0.054596808
52	0x3ffb63e5	1.963986
53	0xbedb0446	-0.42776698
54	0x3e59eea9	0.21282448
55	0xbf1b83dc	-0.60748076
56	0x3d9a9804	0.07548526
57	0xbeb8e745	-0.36113945
58	0xbe764800	-0.24050903
59	0xbf09eb00	-0.53874207
60	0x3e9d370c	0.3070606
61	0xbec73eaf	-0.3891501
62	0xbf3e04a0	-0.7422581
63	0x3e61c6d1	0.22048499

model/activation_16/Relu;model/batch_normalization_16/FusedBatchNormV3;model/conv2d_8/BiasAdd/ReadVariableOp/resource;model/conv2d_8/BiasAdd;model/depthwise_conv2d_11/depthwise;model/conv2d_8/Conv2D f4 [128]
0	0x3d5dea25	0.054178376
1	0xbd47f08f	-0.0488134
2	0xbe1c196b	-0.15244071
3	0x3caeef27	0.021354271
4	0xbe2b0df6	-0.16704544
5	0xbcc33850	-0.023830563
6	0xbe08ffc0	-0.13378811
7	0x3e690975	0.22757514
8	0xbe5a2472	-0.21302965
9	0xbeb41987	-0.35175726
10	0xbd9a85e9	-0.075450726
11	0xbe5f29fe	-0.21793362
12	0xbda0cc02	-0.078514114
13	0x3d3a943a	0.045551516
14	0xbf5e86bc	-0.8692434
15	0x3eccf614	0.40031493
16	0x3f22d0b6	0.6359972
17	0xbd0e8dbc	-0.034803137
18	0xbdda606b	-0.106629215
19	0xbdd2f6c8	-0.10300976
20	0xbe408921	-0.1880231
21	0xbe87c1be	-0.26515
22	0xbd8ad54a	-0.06778963
23	0xbea79d2c	-0.327371
24	0xbe721baa	-0.23643366
25	0xbe193596	-0.14961848
26	0xbdff0ca3	-0.12453582
27	0xbe3b3572	-0.18282107
28	0xbe711f2e	-0.2354705
29	0xbe5279d0	-0.2055428
30	0xbe4c322a	-0.19941011
31	0x3f00f5e3	0.50375193
32	0xbe26f5d7	-0.16304718
33	0xbe359628	-0.17733061
34	0x3f966b37	1.1751469
35	0xbeb7eee4	-0.35924447
36	0xbe0eeb96	-0.13957056
37	0xbe18b491	-0.1491263
38	0xbef4794a	-0.47748786
39	0xbea82e39	-0.32847765
40	0xbc068554	-0.008210499
41	0x3becfa3c	0.0072319787
42	0xbc85a590	-0.016314298
43	0xbe44c854	-0.19217044
44	0xbd070642	-0.032964952
45	0xbe0c5c64	-0.13707119
46	0xbd7d1696	-0.061789118
47	0x3c7065c8	0.014672704
48	0x3f3f440f	0.74713224
49	0xbdbd1cf3	-0.09234037
50	0x3f56bf71	0.83885866
51	0xbc28d6c7	-0.010305113
52	0xbe45648c	-0.19276637
53	0xbde8c921	-0.11366487
54	0xbeb9b080	-0.3626747
55	0xbe47d8a1	-0.19516231
56	0x3cb64397	0.022249026
57	0xbdc2ae39	-0.095058866
58	0xbd187e77	-0.03722998
59	0xbd9db374	-0.077002436
60	0x3e635e6c	0.22203988
61	0xbe28863f	-0.16457461
62	0xbc23215c	-0.009956684
63	0xbdf64a72	-0.12025918
64	0xbdfd0eb9	-0.12356324
65	0xbe415d86	-0.18883333
66	0xbdff097d	-0.124529816
67	0x3f1ce439	0.6128574
68	0xbe2b18c5	-0.16708668
69	0x3c3581e2	0.01107833
70	0xbd145a5e	-0.036218993
71	0x3ec474db	0.38370404
72	0xbe3ce6be	-0.18447396
73	0xbe749426	-0.23884639
74	0xbeb429b3	-0.35188064
75	0xbea6b7e1	-0.32562163
76	0xbe85eae3	-0.26155767
77	0xbe0e6f2c	-0.13909596
78	0x3f486203	0.78274554
79	0xbd20c586	-0.039250873
80	0xbed005ee	-0.40629524
81	0x3fc1aab7	1.5130223
82	0xbdc53314	-0.09628883
83	0xbebdbfb4	-0.3706032
84	0xbe952c9a	-0.2913559
85	0x3ec8760e	0.3915257
86	0xbea10415	-0.31448427
87	0xbec16ceb	-0.3777841
88	0xbf29c995	-0.66323215
89	0xbd87432e	-0.066046104
90	0xbec3c4ca	-0.38236076
91	0xbe865a4e	-0.26240772
92	0xbca24735	-0.019809345
93	0xbe14d057	-0.145326
94	0xbda9243e	-0.08258866
95	0x3d801e32	0.06255759
96	0xbe9f9faf	-0.31176516
97	0x3d77487a	0.060371853
98	0x3de91150	0.11380255
99	0xbca95953	-0.020672476
100	0x3efd433f	0.49465367
101	0xbf13366c	-0.57504916
102	0x3da1efd2	0.0790707
103	0x3c7e81ea	0.015533904
104	0xbde0fc94	-0.109856755
105	0xbe34f4c6	-0.17671499
106	0xbead7de8	-0.3388512
107	0x3e261f51	0.16222884
108	0x3e8f3228	0.27967954
109	0xbea90206	-0.33009356
110	0xbdc9aeac	-0.09847769
111	0xbe95bd5f	-0.2924604
112	0xbca651c7	-0.020302666
113	0xbe0f2b48	-0.13981354
114	0x3fb6a4d7	1.4269055
115	0x3f9736db	1.1813616
116	0x3cd654b6	0.02616344
117	0xbe5c6a4c	-0.21524924
118	0xbe7165a7	-0.23573934
119	0xbfaf8cc1	-1.371483
120	0xbcc736ce	-0.024318125
121	0xbe7afbcc	-0.24510115
122	0xbd92837e	-0.071539864
123	0xbe224be1	-0.15849258
124	0xbc4922c7	-0.012276358
125	0xbe88828f	-0.26662108
126	0x3fad4e12	1.353945
127	0x3f04314d	0.5163773

model/activation_18/Relu;model/batch_normalization_18/FusedBatchNormV3;model/conv2d_9/BiasAdd/ReadVariableOp/resource;model/conv2d_9/BiasAdd;model/depthwise_conv2d_11/depthwise;model/conv2d_9/Conv2D f4 [128]
0	0xbda5ffef	-0.08105456
1	0xbd93aaaf	-0.0721029
2	0xbf70be77	-0.94040626
3	0xbd2af465	-0.04173698
4	0xbdbb379f	-0.09141468
5	0xbe02ceca	-0.12774196
6	0x3f01e5b5	0.5074113
7	0xbda36c98	-0.07979697
8	0x3bc8f498	0.0061326735
9	0xbe4b8a48	-0.19876969
10	0xbdeca963	-0.115557455
11	0xbe252b81	-0.16129877
12	0xbfd3b04d	-1.6538178
13	0xbe6f756e	-0.2338464
14	0xbde55285	-0.1119738
15	0xbe158e3b	-0.14605038
16	0x3fdae1a2	1.7100108
17	0xbe68d747	-0.22738372
18	0x3cde8cfb	0.027166834
19	0x3d701329	0.058612023
20	0xbdc58cb4	-0.096459776
21	0xbe26509a	-0.16241685
22	0xbd07ba82	-0.033136852
23	0x3f8c1e81	1.0946809
24	0xbe1c0abe	-0.15238473
25	0xbea7061e	-0.32621855
26	0xbe043d04	-0.129139
27	0x3d941d54	0.072321564
28	0xbe83134f	-0.2560067
29	0xbe305236	-0.17218861
30	0xbdd18cf7	-0.10231965
31	0xbe447769	-0.19186176
32	0xbe6a7f5c	-0.22900146
33	0xbdcf2faf	-0.10116517
34	0xbf38f2bd	-0.7224539
35	0xbe532ff0	-0.20623755
36	0xbe58ccc0	-0.21171856
37	0xbe23285a	-0.15933362
38	0xbe7b3bbd	-0.24534507
39	0xbe521ed6	-0.20519575
40	0xbe72d7fd	-0.23715205
41	0xbe1391e8	-0.14411128
42	0x3c22ac42	0.009928765
43	0xbe320ddc	-0.173881
44	0xbe18a0c2	-0.14905074
45	0xbd8b45aa	-0.06800397
46	0xbdc2e2cd	-0.09515915
47	0xbd9028c2	-0.07039024
48	0xbd8bd163	-0.06827047
49	0x3f1592df	0.5842723
50	0xbda9d8d0	-0.08293307
51	0xbe420353	-0.1894658
52	0xbc471538	-0.012151055
53	0x3f41ec42	0.75751126
54	0xbe0710fb	-0.13190071
55	0xbfa16b6f	-1.2610911
56	0xbe0c2cec	-0.13689011
57	0xbddad874	-0.106858164
58	0xbe3f2353	-0.18665819
59	0xbe2b1d6c	-0.16710442
60	0xbe46f279	-0.19428433
61	0xbe291c32	-0.16514662
62	0xbe128d9c	-0.14311832
63	0xbda31ea6	-0.0796483
64	0xbd8e2a38	-0.06941646
65	0xbd8a6de1	-0.06759239
66	0xbe7a12ae	-0.24421188
67	0xbe6d1d25	-0.23155649
68	0xbe646963	-0.22305827
69	0xbe8da49c	-0.2766465
70	0x3f087943	0.5331003
71	0xbe2551e8	-0.16144526
72	0xbdfa021f	-0.12207436
73	0x3d617748	0.055045396
74	0x3cfc2354	0.030778565
75	0x3e97262f	0.2952132
76	0x3e044eba	0.12920657
77	0xbde8b12a	-0.11361916
78	0xbc45e9ca	-0.012079665
79	0xbcda5683	-0.02665258
80	0xbe7af80a	-0.24508682
81	0xbe167ca0	-0.14695978
82	0x3d4bb1d5	0.04973014
83	0xbe4936e5	-0.19649847
84	0x3f827474	1.0191789
85	0xbe361754	-0.17782336
86	0x3e7c9b98	0.2466873
87	0xbe0b4cd1	-0.13603522
88	0xbdcac121	-0.09900118
89	0xbe36bf4a	-0.17846408
90	0xbdd10976	-0.10206883
91	0x3ed37114	0.4129721
92	0xbd858240	-0.06518984
93	0xbe0a7fae	-0.13525268
94	0xbe60569f	-0.21908043
95	0x3d06924e	0.03285437
96	0x3bf4b36c	0.007467678
97	0xbe166246	-0.14685926
98	0x3f2f37b7	0.6844439
99	0x3e028980	0.12747765
100	0xbe44aa9b	-0.19205706
101	0xbc972e58	-0.018454716
102	0xbcc1f73a	-0.023677457
103	0x3c187f60	0.009307712
104	0xbe04464a	-0.12917438
105	0xbeab031e	-0.33400816
106	0xbb74f050	-0.0037374683
107	0xbe862618	-0.26200938
108	0xbd1e97a3	-0.03871883
109	0xbe6628a5	-0.22476442
110	0xbb4e27aa	-0.0031456747
111	0xbebf67a6	-0.37383765
112	0xbdb6c3d8	-0.08924073
113	0xbd9fafd3	-0.07797208
114	0x3f01ce3c	0.50705314
115	0xbe2239c8	-0.15842354
116	0xbe1b405a	-0.15161267
117	0xbd8f8e81	-0.07009602
118	0xbe1e9255	-0.15485509
119	0x3ee673e9	0.45010307
120	0xbe19bbe3	-0.1501308
121	0xbe1aa0e3	-0.15100436
122	0x3ebd31af	0.36951968
123	0xbdc6a1e1	-0.09698845
124	0xbd876d4e	-0.06612645
125	0x3c9ac259	0.0188915
126	0xbf0b632a	-0.5444819
127	0x3d07e67c	0.03317879

model/batch_normalization_11/FusedBatchNormV3;model/depthwise_conv2d_5/depthwise;model/depthwise_conv2d_5/BiasAdd;model/depthwise_conv2d_5/BiasAdd/ReadVariableOp/resource f4 [64, 1, 3, 3]
0	0xbe0be1ef	-0.13660406
1	0x3f38f7c7	0.7225308
2	0x3f2f2d2a	0.6842829
3	0xbeddcbe6	-0.43319625
4	0x3ea5c47c	0.32376468
5	0x3f10603d	0.5639685
6	0xbee1bc76	-0.44089097
7	0xbe3cc907	-0.18436061
8	0x3cf2bfa4	0.029632397
9	0xbe8e593a	-0.2780245
10	0xbef44ef4	-0.47716486
11	0xbe37c10d	-0.17944737
12	0xbf0302b0	-0.51175976
13	0xbe0e49d6	-0.13895354
14	0x3dbdbe0d	0.09264765
15	0xbef0a058	-0.46997333
16	0xbe07eee9	-0.1327473
17	0x3e8e7324	0.2782222
18	0x3ee115cd	0.43961945
19	0x3ca906a6	0.020633053
20	0xbe7b48b4	-0.24539453
21	0x3eed4db4	0.46348345
22	0x3ed62a1e	0.41829008
23	0x3d8d33e2	0.068946615
24	0x3df97c1a	0.121818736
25	0x3ef94295	0.4868361
26	0x3e9aa49b	0.3020371
27	0xc06863fe	-3.631103
28	0xc030019d	-2.7500985
29	0xc034b610	-2.8236122
30	0xc015000b	-2.3281276
31	0xc05eb2b1	-3.4796565
32	0x3fb6699c	1.425098
33	0xbf5a2a73	-0.8522102
34	0xbe6977d9	-0.22799625
35	0x3e7ac077	0.24487482
36	0xbd5592aa	-0.052141823
37	0x3e877d48	0.2646277
38	0x3e92d032	0.28674465
39	0x3ecf5fcc	0.40502775
40	0x3f165517	0.58723587
41	0x3ed7db7e	0.42159647
42	0x3ec02d4c	0.3753456
43	0x3ed41061	0.41418746
44	0x3e0065c8	0.12538826
45	0xbd8e7f2a	-0.06957848
46	0xbf10bc93	-0.5653774
47	0x3dbb44fc	0.09144017
48	0xbefe3b64	-0.49654686
49	0x3e836d3a	0.2566927
50	0x3ebb5420	0.3658762
51	0xbef8d6bb	-0.48601326
52	0x3ed5eea9	0.41783646
53	0x3cff0587	0.031130565
54	0xbdcc3008	-0.09970099
55	0xbdf1b1fd	-0.11801527
56	0x3cb93603	0.022608763
57	0x3c9c3966	0.019070338
58	0x3ea2fcc1	0.3183346
59	0x3ef65fcd	0.48119965
60	0xbf3848be	-0.71985996
61	0xbe9c27bc	-0.30499065
62	0x3d58017f	0.0527358
63	0xbd28b2c3	-0.041186105
64	0x3e0a6eb2	0.1351879
65	0xbf0d3485	-0.55158263
66	0x3e9ee356	0.3103282
67	0x3e20f579	0.1571864
68	0xbea07cc0	-0.31345177
69	0x3e52d92d	0.20590658
70	0xbda2d05c	-0.07949898
71	0xbe81f082	-0.25378805
72	0xb97d000a	-0.00024127975
73	0xbeef1399	-0.4669464
74	0xbf551f77	-0.83251137
75	0xbde698ad	-0.11259589
76	0xbefd2eb2	-0.49449688
77	0xbea5553b	-0.32291588
78	0xbe0d24fc	-0.1378364
79	0xbf371655	-0.7151845
80	0xbee7d28d	-0.45277825
81	0x3f8edfed	1.1162087
82	0x3fb3a3cd	1.4034363
83	0x3f3cb8f2	0.73719704
84	0x3f54fb42	0.8319589
85	0x3f9ffedf	1.2499655
86	0x3ebe4a6e	0.3716616
87	0x3e2058cd	0.15658875
88	0x3eccb3c1	0.3998089
89	0x3ed2b2ad	0.41151944
90	0x3e229ae5	0.158794
91	0x3dda31f8	0.10654062
92	0x3e14f782	0.14547542
93	0x3e93e979	0.28889063
94	0x3ec787d1	0.38970807
95	0x3e37acb0	0.17936969
96	0x3e84f89a	0.25970918
97	0x3ebf4917	0.3736045
98	0x3df021b0	0.117251754
99	0xbdb85a4c	-0.09001598
100	0xbe05427e	-0.13013646
101	0xbe1aa8f8	-0.15103519
102	0xbee2a7e2	-0.4426871
103	0xbe8b715b	-0.2723492
104	0xbe8f0037	-0.2792985
105	0xbe5f9be2	-0.21836808
106	0xbeeebfcc	-0.46630704
107	0xbeef7631	-0.4676986
108	0xc01e6220	-2.474739
109	0xbb7a1749	-0.0038160852
110	0x3f8f3b58	1.1189985
111	0xc03e5c1c	-2.974372
112	0xbfca9340	-1.5826187
113	0x3db02e1a	0.08602543
114	0xbf6ed2b1	-0.9329024
115	0x3fa4cc4c	1.2874846
116	0xbfe28d3e	-1.7699354
117	0x3e15efd6	0.14642271
118	0xbf8094f6	-1.0045459
119	0xc02ced99	-2.7020018
120	0xbf696f66	-0.91185606
121	0x3f9933f3	1.1968979
122	0xbf7fa4a4	-0.99860597
123	0x3f0f0730	0.5587034
124	0xc0682e4d	-3.627826
125	0xbfcec318	-1.6153288
126	0x3e898f14	0.26866972
127	0x3eab15a1	0.3341494
128	0x3e5bf70e	0.21480963
129	0x3e704e00	0.23467255
130	0x3ed36238	0.41285872
131	0x3e2ece10	0.17070794
132	0x3cf8c91b	0.030369332
133	0x3dac7014	0.08419815
134	0x3c9ff770	0.019527167
135	0xbef9a362	-0.48757464
136	0x3e9ae811	0.30255178
137	0x3f2af989	0.6678701
138	0xbedaafa4	-0.42712128
139	0xbe052e00	-0.13005829
140	0x3efff1c7	0.4998915
141	0x3b67a21d	0.003534443
142	0xbf06ee20	-0.527071
143	0x3dc41169	0.09573633
144	0xbe95de2f	-0.29271075
145	0xbed4daef	-0.41573283
146	0xbea4e4db	-0.32205853
147	0xbe7626d7	-0.24038254
148	0xbebebabc	-0.37251842
149	0xbe0b0d14	-0.13579208
150	0xbea46685	-0.32109466
151	0xbecfba7a	-0.40571958
152	0xbdc244e5	-0.09485797
153	0x3e0175c6	0.12642583
154	0x3ecae6cf	0.39629218
155	0x3ed1b252	0.4095636
156	0x3e007fac	0.12548703
157	0x3e964772	0.29351383
158	0x3e8e40e7	0.27783892
159	0xbd0ccc71	-0.034374658
160	0xbcb0d5bb	-0.02158629
161	0x3dc5b84a	0.09654291
162	0x3e497c45	0.19676311
163	0x3e0c1883	0.13681225
164	0x3b842d31	0.0040337075
165	0x3e89bfaa	0.2690404
166	0x3e99758b	0.2997249
167	0x3e51dc6d	0.20494242
168	0x3e164e17	0.14678226
169	0x3e83798f	0.2567868
170	0x3e946095	0.28979936
171	0x3dfbafcb	0.12289389
172	0xbd4a2fb5	-0.049361903
173	0xbe61500d	-0.22003193
174	0xbe927ed8	-0.286124
175	0xbed04070	-0.40674162
176	0xbef458df	-0.47724053
177	0xbeca113b	-0.3946627
178	0xbedb709f	-0.4285936
179	0xbea01d36	-0.31272286
180	0x3f945707	1.1589059
181	0x4017030d	2.3595612
182	0x3faf4633	1.3693298
183	0x4005e377	2.0920084
184	0x404eaaf5	3.2291844
185	0x3fdbeb45	1.7181174
186	0x3f8568ee	1.0422647
187	0x3fecb82a	1.8493702
188	0x3f9ca2aa	1.2237141
189	0x3ead4681	0.33842853
190	0x3f3ef20b	0.7458808
191	0x3ea94549	0.33060673
192	0x3f129626	0.5726036
193	0x3f449d73	0.7680275
194	0x3e44dfdb	0.19226019
195	0x3e84bbc4	0.25924504
196	0x3ded41ea	0.11584838
197	0x3cddc4c9	0.027071374
198	0xbdc46dff	-0.095912926
199	0x3e90738a	0.2821315
200	0x3eb7be62	0.35887438
201	0x3f0465fd	0.5171812
202	0x3f51a33b	0.81889695
203	0x3eebfea9	0.46092728
204	0x3f1eb0e0	0.6198864
205	0x3f529f4a	0.82274306
206	0x3edee33d	0.43532744
207	0x3efd1723	0.49431714
208	0x3f364fba	0.71215403
209	0x3edd978a	0.43279678
210	0x3f32327f	0.696083
211	0x3f5dd36b	0.86650723
212	0x3ec92220	0.39283848
213	0x3e0871f2	0.13324717
214	0x3e0bccac	0.13652295
215	0xbd87790e	-0.06614886
216	0x3e4e389f	0.20138787
217	0x3ebc1400	0.3673401
218	0x3e7027f5	0.23452742
219	0x3ea4ebe5	0.32211223
220	0x3f18c482	0.5967485
221	0x3e9a26d5	0.3010775
222	0x3e424ee1	0.18975402
223	0x3e9a2ee8	0.30113912
224	0x3e628ec4	0.22124773
225	0xbf112a74	-0.56705403
226	0xbe2cd11a	-0.16876641
227	0x3e7f0af2	0.24906519
228	0xbeb85bf9	-0.3600767
229	0x3ebb671d	0.36602107
230	0x3f2289ec	0.634917
231	0xbdad432e	-0.08460079
232	0x3f036de7	0.5133957
233	0x3f0b4728	0.5440545
234	0x3e8ea0e1	0.27857116
235	0x3dee87f2	0.11647023
236	0xbda2382b	-0.079208694
237	0x3f08f991	0.5350581
238	0x3eedbd01	0.4643326
239	0xbd3eb065	-0.04655494
240	0x3e077b65	0.13230665
241	0x3e88534d	0.26626053
242	0x3db8dc96	0.090264484
243	0xbcdbe711	-0.02684358
244	0x3de82b7d	0.1133642
245	0x3db6ceaa	0.08926137
246	0x3dc8ef83	0.09811308
247	0x3ef9ef5e	0.48815435
248	0x3f18a217	0.5962233
249	0x3dea557c	0.11442086
250	0x3e9675f8	0.29386878
251	0x3eb34cc2	0.350195
252	0xbf012443	-0.50445956
253	0xbf83638c	-1.0264754
254	0xbf2df786	-0.67955816
255	0xbf23692d	-0.6383236

model/conv2d_9/Conv2D f4 [128, 128, 1, 1]
0	0x8d205c8e	-4.9415215e-31
1	0x8ce9a7b0	-3.6000257e-31
2	0x0ccc9c13	3.152511e-31
3	0x8ce3e1c0	-3.5110756e-31
4	0x8d40644b	-5.928529e-31
5	0x8d1efdb4	-4.8992893e-31
6	0x0d6b9a48	7.2600675e-31
7	0x0c553920	1.6426114e-31
8	0x8d66ffa6	-7.1181948e-31
9	0x8cd512b2	-3.2829098e-31
10	0x8d279ef2	-5.165217e-31
11	0x8d61c7a4	-6.9573787e-31
12	0x0d11fc05	4.498493e-31
13	0x8c8b556f	-2.146776e-31
14	0x0d913634	8.949364e-31
15	0x0d42dfae	6.005011e-31
16	0x8c422107	-1.4955155e-31
17	0x8c9ab1d7	-2.383449e-31
18	0x8d1bda53	-4.802586e-31
19	0x0d8b06d5	8.568181e-31
20	0x8d87c968	-8.368504e-31
21	0x8dbdd0d1	-1.1698295e-30
22	0x0d55ec64	6.5920237e-31
23	0x8d6ca07c	-7.291629e-31
24	0x8dc357f2	-1.2038975e-30
25	0x0d8c9053	8.662911e-31
26	0x0d7efff0	7.8577866e-31
27	0x0ce54bae	3.5328585e-31
28	0x0cb96371	2.8563612e-31
29	0x0cebf482	3.635464e-31
30	0x0d8fa8e8	8.853718e-31
31	0x8ce99d36	-3.5993952e-31
32	0x0d9a8808	9.523731e-31
33	0x0d3a1b2b	5.7348377e-31
34	0x0d2f9e0b	5.4116276e-31
35	0x0d4929ba	6.1988134e-31
36	0x8d812c14	-7.96085e-31
37	0x8d550372	-6.563984e-31
38	0x0d6cb609	7.294223e-31
39	0x8bf993b5	-9.6133556e-32
40	0x0cc5c833	3.0473146e-31
41	0x8d454173	-6.0784093e-31
42	0x8ce5ff49	-3.543668e-31
43	0x8d785495	-7.652271e-31
44	0x0d5d3689	6.8166527e-31
45	0x0d344ebd	5.556156e-31
46	0x8d054136	-4.1062284e-31
47	0x8d285d34	-5.1881186e-31
48	0x0d6be4a2	7.2690173e-31
49	0x0d4612f3	6.103627e-31
50	0x8d27e6c8	-5.173864e-31
51	0x0d05f216	4.127519e-31
52	0x0d5b1eef	6.752182e-31
53	0x8d0f13da	-4.4089173e-31
54	0x8d7c149f	-7.7678317e-31
55	0x8d8b4383	-8.582789e-31
56	0x0b04d09a	2.557921e-32
57	0x0cb99e21	2.8598934e-31
58	0x8cdb1831	-3.3756852e-31
59	0x8dbd2498	-1.1656834e-30
60	0x0c5d9206	1.7069163e-31
61	0x0c7fc841	1.9704747e-31
62	0x0cc2f86d	3.0039949e-31
63	0x8d9012d8	-8.879222e-31
64	0x0d8e569b	8.772275e-31
65	0x8d7c6ff9	-7.7788278e-31
66	0x8cb2b56a	-2.7534427e-31
67	0x0d6e75ec	7.3481356e-31
68	0x8d214b20	-4.9702384e-31
69	0x8d5a4df0	-6.727025e-31
70	0x0d906395	8.898659e-31
71	0x0d58be4b	6.6789196e-31
72	0x8d15dee1	-4.618245e-31
73	0x8d35e52d	-5.605079e-31
74	0x0d4fc6ea	6.4026234e-31
75	0x8cf124f9	-3.7154181e-31
76	0x0d2b65b5	5.281587e-31
77	0x0c959232	2.3045073e-31
78	0x0ccaeaac	3.1264266e-31
79	0x8c9dd599	-2.4318235e-31
80	0x8d28cd47	-5.201609e-31
81	0x8d1b1e3e	-4.7799465e-31
82	0x0cf9d564	3.8492954e-31
83	0x0ccc2447	3.145301e-31
84	0x0d3e122c	5.8570144e-31
85	0x8cf0c9cf	-3.7099314e-31
86	0x8d4078e4	-5.9310085e-31
87	0x8c95d71c	-2.308655e-31
88	0x8d737160	-7.5016626e-31
89	0x0c08ccd7	1.0538701e-31
90	0x0d45b78c	6.092625e-31
91	0x8db5f20d	-1.1213258e-30
92	0x8d251038	-5.0864073e-31
93	0x8d816cc1	-7.97642e-31
94	0x8d21a02d	-4.980476e-31
95	0x0d6c13cc	7.2746944e-31
96	0x8c0f06c6	-1.1018358e-31
97	0x0bfbad19	9.694213e-32
98	0x0d881727	8.387221e-31
99	0x8dba7522	-1.1491334e-30
100	0x8da6fa82	-1.0290847e-30
101	0x0d83b9e2	8.118248e-31
102	0x0d10a345	4.4569954e-31
103	0x8d529426	-6.4889573e-31
104	0x8d732147	-7.4920212e-31
105	0x0d3161d7	5.4660106e-31
106	0x8d1bee26	-4.8049723e-31
107	0x8d1a8f77	-4.7627603e-31
108	0x0b129a7c	2.8234798e-32
109	0x0c8607fb	2.0650772e-31
110	0x8b9635de	-5.785895e-32
111	0x8d750d8f	-7.5512774e-31
112	0x0d449f75	6.0589102e-31
113	0x0d733715	7.494646e-31
114	0x8c73d678	-1.8784578e-31
115	0x0dbb4ab9	1.1542754e-30
116	0x0b796703	4.8033153e-32
117	0x8d8db03d	-8.732224e-31
118	0x8d4c63bf	-6.298242e-31
119	0x8b9a0f19	-5.934136e-32
120	0x0d3ff6f8	5.9153697e-31
121	0x8c172b3e	-1.164563e-31
122	0x0d50d1fb	6.4347703e-31
123	0x8b236d71	-3.1474993e-32
124	0x8d53126b	-6.5041565e-31
125	0x0d25bcd4	5.1071844e-31
126	0x8d9add4f	-9.544261e-31
127	0x8d5c2a49	-6.7843633e-31
128	0x8d43549f	-6.0190873e-31
129	0x0e10d6d5	1.7852808e-30
130	0x8c2808b4	-1.2944868e-31
131	0x8cbbade2	-2.8916564e-31
132	0x8cd0b47b	-3.2156097e-31
133	0x8b81a4e5	-4.99371e-32
134	0x8e106416	-1.779756e-30
135	0x8dc2d2eb	-1.200695e-30
136	0x0d872d9d	8.330998e-31
137	0x8d9afcb9	-9.551824e-31
138	0x8d832e17	-8.084594e-31
139	0x0d1551f1	4.6012803e-31
140	0x8c395f39	-1.4280537e-31
141	0x8df55cb8	-1.5121612e-30
142	0x8da71e86	-1.0299518e-30
143	0x8dc9cee7	-1.2437391e-30
144	0x0c1aaa3d	1.1914958e-31
145	0x8e16d137	-1.858966e-30
146	0x0dc489b4	1.2112583e-30
147	0x0d1500f8	4.5915336e-31
148	0x8d920547	-8.999215e-31
149	0x0e1ad8d5	1.9086366e-30
150	0x8d878e4b	-8.354273e-31
151	0x0d1138b6	4.474984e-31
152	0x0d04c032	4.0906987e-31
153	0x0d6ae912	7.2387365e-31
154	0x0bca187d	7.7844416e-32
155	0x0d0d5f7f	4.356393e-31
156	0x0cee3e8e	3.6707355e-31
157	0x0bfb2067	9.6730437e-32
158	0x8dbd9427	-1.1683691e-30
159	0x0db40e60	1.1096817e-30
160	0x0d4f032c	6.379062e-31
161	0x0e11811a	1.793479e-30
162	0x0de0ab43	1.3846296e-30
163	0x09dcf465	5.31929e-33
164	0x8da18ce0	-9.9563055e-31
165	0x8cc7dbae	-3.079302e-31
166	0x0ddab84f	1.3479658e-30
167	0x0beeedb3	9.2031915e-32
168	0x0df7e2a2	1.527711e-30
169	0x8da7af29	-1.0334338e-30
170	0x8d76872d	-7.5967315e-31
171	0x0c764799	1.8972696e-31
172	0x8dcb5365	-1.2530917e-30
173	0x8dc331c0	-1.202978e-30
174	0x8c38a525	-1.4224541e-31
175	0x8c00479c	-9.88231e-32
176	0x8d3804fb	-5.6705373e-31
177	0x0da75d30	1.0314604e-30
178	0x8e0845fd	-1.6796992e-30
179	0x0d020150	4.0060923e-31
180	0x8dec9e9b	-1.4582806e-30
181	0x0d450cc0	6.072066e-31
182	0x0e072bca	1.6661118e-30
183	0x0dd7c387	1.32974695e-30
184	0x8da7e640	-1.03476e-30
185	0x0d94b918	9.165764e-31
186	0x8d909bb4	-8.912169e-31
187	0x8c0719b2	-1.0407754e-31
188	0x8d58ab3f	-6.676627e-31
189	0x0e0150a1	1.5939299e-30
190	0x0ca6767d	2.5647662e-31
191	0x8d774070	-7.6190315e-31
192	0x8d9b8f3a	-9.587093e-31
193	0x8d15a5fe	-4.6113976e-31
194	0x0c24b7b5	1.2689383e-31
195	0x8d960b73	-9.24722e-31
196	0x8b9278f6	-5.6419156e-32
197	0x0dd1b678	1.2924547e-30
198	0x0c1cf254	1.2090726e-31
199	0x0d3f51e9	5.8955015e-31
200	0x0db8ae1b	1.138179e-30
201	0x8d5c5c26	-6.7903654e-31
202	0x0da1ff7b	9.983896e-31
203	0x0d06cb2c	4.1536497e-31
204	0x8d4cc051	-6.3093846e-31
205	0x0d456a1d	6.083304e-31
206	0x0d406d97	5.929648e-31
207	0x0cc49640	3.028901e-31
208	0x8db85c47	-1.13620905e-30
209	0x8dd4cde9	-1.311508e-30
210	0x0d9867bf	9.392699e-31
211	0x0ceddc3b	3.6648178e-31
212	0x0d932335	9.06805e-31
213	0x0d86f275	8.316757e-31
214	0x8ca18a5b	-2.4889247e-31
215	0x8ccd04b6	-3.1588086e-31
216	0x8dd327c6	-1.3013454e-30
217	0x8d4ac042	-6.247748e-31
218	0x8de80c53	-1.4301071e-30
219	0x8c917e4f	-2.2416807e-31
220	0x0dd98354	1.3405274e-30
221	0x8cc7b825	-3.0771633e-31
222	0x8d09492e	-4.230447e-31
223	0x8dc8179b	-1.2331634e-30
224	0x8db3cf2f	-1.1081604e-30
225	0x8bc18535	-7.4541324e-32
226	0x8dcd5e5d	-1.2656818e-30
227	0x0d1b6f36	4.789693e-31
228	0x0e018eee	1.5969296e-30
229	0x0e124e08	1.803346e-30
230	0x8c980238	-2.3420643e-31
231	0x8b87fe39	-5.238262e-32
232	0x0d2ba0e0	5.288709e-31
233	0x8d8e0d1e	-8.7545835e-31
234	0x0c58b81c	1.6695438e-31
235	0x8d7af03f	-7.7326383e-31
236	0x0d27ab2d	5.1666893e-31
237	0x8d71c871	-7.450513e-31
238	0x0d542851	6.5376073e-31
239	0x0ddfc4f0	1.3790847e-30
240	0x8a5def80	-1.0685808e-32
241	0x8d56634b	-6.606336e-31
242	0x8dfd8578	-1.562446e-30
243	0x8d9db4c6	-9.719392e-31
244	0x8d8edcda	-8.804594e-31
245	0x0b5e4693	4.280874e-32
246	0x0dda67b4	1.3460253e-30
247	0x0d786f75	7.655506e-31
248	0x8c2e5ce7	-1.3432429e-31
249	0x0e0cd635	1.735947e-30
250	0x8df46b65	-1.5063515e-30
251	0x0e043bbe	1.6299021e-30
252	0x8e00de30	-1.5884197e-30
253	0x0d81ba94	7.995156e-31
254	0x0d58ea0d	6.6841867e-31
255	0x8d9876d8	-9.396334e-31

model/activation_23/Relu;model/batch_normalization_23/FusedBatchNormV3;model/depthwise_conv2d_11/depthwise;model/depthwise_conv2d_11/BiasAdd;model/depthwise_conv2d_11/BiasAdd/ReadVariableOp/resource f4 [128]
0	0xbe9bbb30	-0.3041625
1	0x3e0eb0ce	0.13934633
2	0xbe58d943	-0.21176629
3	0xbe8a5793	-0.2701994
4	0xbe92bcfa	-0.28659803
5	0xbe9f4b96	-0.31112355
6	0x3ebeb955	0.37250772
7	0xbe4e2cb2	-0.20134237
8	0xbe7e9bb1	-0.24864079
9	0x3e706a6b	0.23478095
10	0x3f158bf0	0.5841665
11	0xbeb063d4	-0.34451163
12	0xbc73ecaa	-0.014887968
13	0xbe80173e	-0.25017732
14	0xbe921226	-0.2852947
15	0xbf167c27	-0.5878319
16	0xbebc6bde	-0.36801046
17	0xbf04d252	-0.51883423
18	0xbd894285	-0.06702141
19	0xbe8d9772	-0.27654606
20	0xbe8e273e	-0.27764314
21	0xbe8e026f	-0.27736232
22	0x3d24e31b	0.040255647
23	0xbea4502a	-0.3209241
24	0xbeb1567f	-0.34636304
25	0xbeb14ab4	-0.34627306
26	0xbf014d49	-0.5050855
27	0xbe74f8b5	-0.23922999
28	0xbe3ef556	-0.18648276
29	0xbebfb8ba	-0.37445623
30	0xbe87c708	-0.26519036
31	0xbe1c6be4	-0.15275532
32	0xbe00afc5	-0.12567051
33	0xbea8a9a1	-0.32941917
34	0xbea26158	-0.31714892
35	0xbe08c546	-0.13356504
36	0x3effa5c4	0.49931157
37	0xbe7b97ff	-0.245697
38	0xbe652d64	-0.22380596
39	0xbd8f303d	-0.069916226
40	0xbea28250	-0.31740046
41	0xbe8a5e28	-0.2702496
42	0xbe9ca531	-0.3059478
43	0xbf7ac6f6	-0.9795984
44	0xbe8bab12	-0.27278954
45	0xbe695f90	-0.2279036
46	0xbe9869b2	-0.2976814
47	0xbeb6576a	-0.35613567
48	0xbd223f40	-0.0396111
49	0x3e703d41	0.23460867
50	0xbe97a4a9	-0.29617813
51	0xbe2262f5	-0.15858062
52	0xbf696de5	-0.9118331
53	0xbe255898	-0.16147077
54	0xbc94c448	-0.01816
55	0xbeb74ef7	-0.35802433
56	0xbe8a9320	-0.27065372
57	0xbea013a3	-0.31264982
58	0xbeab0f68	-0.33410192
59	0x3ddbafac	0.10726866
60	0xbea93323	-0.33046827
61	0xbf52f5b3	-0.8240616
62	0x3ed254f9	0.41080454
63	0xbea9eaa8	-0.3318684
64	0xbe859974	-0.26093638
65	0xbc9f9e68	-0.019484714
66	0xbeaf2c54	-0.34213507
67	0xbe9919a4	-0.29902375
68	0xbc4cddd4	-0.01250406
69	0xbef33bf4	-0.47506678
70	0xbe81b48c	-0.2533306
71	0xbe948c42	-0.29013258
72	0xbe3b05d6	-0.18263945
73	0xbe94365d	-0.28947726
74	0xbfa65641	-1.2995073
75	0xbeacae74	-0.33726847
76	0xbf27b7b5	-0.6551469
77	0xbd95abd9	-0.07308168
78	0x3c3245f0	0.010880932
79	0xbe871e59	-0.2639034
80	0xbe910a88	-0.28328347
81	0xbe78651c	-0.2425732
82	0xbee619c7	-0.44941542
83	0xbe6586c8	-0.22414696
84	0xbedb125b	-0.42787442
85	0xbdb65795	-0.08903424
86	0xbe97abef	-0.29623362
87	0xbddc71b5	-0.107638754
88	0xbe704016	-0.23461947
89	0x3f0b7a64	0.5448363
90	0xbe98a475	-0.2981297
91	0xbf2e480f	-0.680787
92	0xbde096f2	-0.109662905
93	0xbea1cbb6	-0.31600732
94	0xbd0f8e0a	-0.03504757
95	0xbeafe45c	-0.34353912
96	0xbea29de2	-0.3176108
97	0x3e920da4	0.28526032
98	0xbea333f0	-0.31875563
99	0xbe8593d6	-0.26089352
100	0xbea2d28a	-0.31801254
101	0xbdad2e37	-0.084560804
102	0xbe727412	-0.2367709
103	0xbeacbfb3	-0.33740005
104	0xbeaf784b	-0.34271464
105	0xbec70b8f	-0.38876006
106	0x3eb3c99f	0.35114762
107	0xbe7a1c47	-0.2442485
108	0x3eef0b34	0.46688235
109	0x3e94676e	0.2898516
110	0xbdb69af8	-0.08916277
111	0x3ec3a5a6	0.38212317
112	0x3ed0f352	0.4081064
113	0xbeb95270	-0.36195707
114	0xbea97aa7	-0.3310139
115	0x3dd676f7	0.104719095
116	0xbe8717a8	-0.26385236
117	0xbe8a3b12	-0.26998192
118	0xbdb5fc36	-0.08885996
119	0xbe8374b5	-0.25674978
120	0xbdcafc4e	-0.099114046
121	0x3e6a025a	0.2285246
122	0xbb9b0212	-0.0047304714
123	0x3efdaabc	0.49544322
124	0xbcfffd9d	-0.031248862
125	0xbecc8855	-0.39947763
126	0x3d769d76	0.06020876
127	0xbf496b32	-0.7867919

model/batch_normalization_25/FusedBatchNormV3;model/depthwise_conv2d_12/depthwise;model/depthwise_conv2d_12/BiasAdd;model/conv2d_13/Conv2D;model/depthwise_conv2d_12/BiasAdd/ReadVariableOp/resource f4 [256, 1, 3, 3]
0	0x3ec0c90d	0.3765339
1	0xc05ec112	-3.480534
2	0xc0044445	-2.0666668
3	0xc0d6aded	-6.708731
4	0xbe870e4b	-0.26378092
5	0x3f11066c	0.56650424
6	0x3dc8a340	0.097967625
7	0xbf9e5a9d	-1.2371403
8	0xbfa0e6a9	-1.2570392
9	0x3e4e29d1	0.20133139
10	0x3fca7c58	1.5819197
11	0xbcfe272d	-0.03102454
12	0xbdeab05b	-0.114594184
13	0x3d9b6cb5	0.075890936
14	0xbd27f3c8	-0.041003972
15	0xbe8dae46	-0.27672023
16	0x3dbb362c	0.09141192
17	0x3d3f288e	0.046669535
18	0xbdf110a0	-0.11770749
19	0xc0038508	-2.0549946
20	0xbee40db6	-0.4454171
21	0xbf68b2e1	-0.9089795
22	0xbe229b7b	-0.15879624
23	0x3d13e20f	0.03610426
24	0xc0c41386	-6.127383
25	0xbe5ef862	-0.21774438
26	0xbf3d5ba2	-0.73967946
27	0xbdc19d98	-0.09453887
28	0x3e56bf64	0.20971447
29	0xc0c8d298	-6.2757072
30	0xbf8bc271	-1.0918714
31	0xbf646551	-0.89217097
32	0xbedfa188	-0.43677926
33	0xbf00f688	-0.50376177
34	0x3f158d99	0.58419186
35	0x3e501343	0.20319848
36	0x3f5a4c51	0.852727
37	0xbfe5a9c8	-1.7942438
38	0xc09d0e2c	-4.90798
39	0xc0f0273d	-7.50479
40	0x3f57c3a2	0.84282887
41	0xbf60bcdf	-0.87788194
42	0xc110fdbf	-9.06195
43	0xbe27ec12	-0.16398647
44	0xbf95feda	-1.17184
45	0xc0a6e567	-5.215503
46	0xc0bbb681	-5.8660283
47	0xc0681635	-3.6263554
48	0xc01f2612	-2.4866986
49	0x3e92116f	0.28528926
50	0xbc1946e7	-0.009355283
51	0x3d7a41de	0.061097972
52	0xbe6c056f	-0.23048948
53	0xbf4ed38c	-0.80791545
54	0xbebd46ef	-0.3696818
55	0xbec48e19	-0.38389662
56	0xbe9b11a6	-0.30286902
57	0xbcbce230	-0.023057073
58	0xbc3738e2	-0.0111829955
59	0xbcaf4bad	-0.02139839
60	0xbc113227	-0.008862055
61	0xbb9ca56a	-0.004780461
62	0xbc14e126	-0.009086883
63	0xc0c76c43	-6.2319655
64	0xc0515a2c	-3.2711287
65	0x3f107688	0.56430864
66	0xbef2e630	-0.47441244
67	0xbcc929bb	-0.024556031
68	0x3eee35c6	0.465254
69	0x3e8c18c3	0.27362642
70	0x3dae97a6	0.085250184
71	0xbf85e9ce	-1.0461977
72	0x3f68a055	0.9086965
73	0xc002f360	-2.0461044
74	0x3f9d7d06	1.2303779
75	0xc117768f	-9.466445
76	0xbee3ed82	-0.44517142
77	0xbce487d2	-0.027896795
78	0xc0c6f491	-6.2173543
79	0xbd42f3d6	-0.04759582
80	0x3f8434ef	1.0328654
81	0xc0620cb0	-3.5320244
82	0x3e686675	0.22695334
83	0xbe911dce	-0.28343052
84	0xc0894e12	-4.29078
85	0xbe267367	-0.1625496
86	0xbedeed24	-0.435403
87	0xbf9d4ff3	-1.2290024
88	0xbf6b0448	-0.9180341
89	0x3d06b167	0.032884028
90	0x3d8a366f	0.06748664
91	0x3ef9ae0e	0.48765606
92	0xc0addc1b	-5.4331183
93	0xbba7cbe4	-0.005120741
94	0xbf4c9d18	-0.79927206
95	0xc0058820	-2.0864334
96	0xbf6c66df	-0.9234447
97	0x3e844197	0.2583129
98	0x3d92b26f	0.0716294
99	0xbee0b4ba	-0.43887883
100	0xbf34f6b1	-0.7068892
101	0x3e3c98c4	0.1841765
102	0x3e87179b	0.26385197
103	0xc090b1bc	-4.521696
104	0x3daacf1c	0.08340284
105	0xbe929d9e	-0.28635877
106	0xc03751aa	-2.8643594
107	0xbe44665f	-0.19179676
108	0xc085db2c	-4.1830044
109	0xbfdc7264	-1.7222409
110	0x3f505fbe	0.8139609
111	0xc070ac8d	-3.7605317
112	0x3ea90dc6	0.3301832
113	0x3e093748	0.13399994
114	0xbf726eb6	-0.9470018
115	0x3f459f0c	0.7719581
116	0xbf905217	-1.1275052
117	0xbfb9cc9c	-1.4515567
118	0xbd87e479	-0.066353746
119	0x3e3a3ec6	0.18188009
120	0xbe6fc978	-0.23416698
121	0x3e16993d	0.14706893
122	0xbf095ab7	-0.53654045
123	0x3dc435eb	0.095805965
124	0xc0127628	-2.2884617
125	0xc0464bba	-3.098372
126	0xbdaba93c	-0.08381888
127	0x3f4e7a10	0.80655
128	0xc01606a8	-2.3441563
129	0xbf978ea9	-1.1840411
130	0xc0651197	-3.5791986
131	0xbf5b8299	-0.8574615
132	0xbfe839da	-1.8142655
133	0xc02b1129	-2.6729224
134	0xbf10a3bf	-0.56499857
135	0xc05ac449	-3.4182303
136	0xc1304706	-11.01734
137	0xc0400c10	-3.0007362
138	0xbe20cd33	-0.15703277
139	0x3d7191d9	0.05897698
140	0xbdf7d37e	-0.12100886
141	0x3ddc66a3	0.10761764
142	0xbebcf072	-0.36902195
143	0x3f01c7b3	0.5069534
144	0xc033771a	-2.8041444
145	0xbf8f3294	-1.118731
146	0xbf6a2a89	-0.91471153
147	0xbdbbd337	-0.091711454
148	0xbe7ff140	-0.24994373
149	0x3e7f3258	0.24921548
150	0xbd04349c	-0.032276735
151	0x3e087987	0.13327609
152	0xbeaa4bf2	-0.33261067
153	0xbff6c3a7	-1.9278458
154	0x3d61eb5b	0.055156093
155	0x3df7215a	0.12066908
156	0xbf57d45f	-0.8430843
157	0xbf0d4520	-0.551836
158	0xbd296b12	-0.041361876
159	0x3d20bec0	0.039244413
160	0xc042a341	-3.0412142
161	0x3f02544f	0.50909895
162	0xc098fe1b	-4.7810187
163	0xbfcc4a33	-1.5960144
164	0xbfcc26dd	-1.594936
165	0xc0380a5a	-2.8756318
166	0x3d9faa88	0.07796198
167	0xbeaf0a9e	-0.34187788
168	0x3fa0e2e7	1.2569245
169	0xbeda8827	-0.42682
170	0x3f227004	0.6345217
171	0xbe92cc27	-0.2867138
172	0xbe484b7d	-0.19560046
173	0x3e6666fc	0.22500223
174	0xc0f4de79	-7.6521573
175	0xbe4ada31	-0.19809796
176	0xbf0fedbd	-0.56222135
177	0xc0132b08	-2.2995014
178	0x3f6370ef	0.888442
179	0xbf1d1943	-0.6136667
180	0xbd03f130	-0.032212436
181	0xbd3b81c1	-0.04577804
182	0x3d2a4692	0.041571207
183	0xbd811549	-0.06302888
184	0xbfeab26a	-1.8335698
185	0xc087f017	-4.248058
186	0xbea20b4d	-0.31649247
187	0x3e5ab947	0.2135974
188	0xc079ce8a	-3.9032311
189	0x3d0c250a	0.03421501
190	0xbfdcf0fb	-1.7261041
191	0x3f5470e4	0.8298476
192	0xbe78ce94	-0.24297553
193	0xc02db048	-2.7138844
194	0x3f2cd115	0.67506534
195	0x3f3f3df3	0.747039
196	0xbfa4adfb	-1.2865595
197	0xbf333ae6	-0.70011747
198	0xc09eddfe	-4.9645987
199	0x3db282e1	0.087163694
200	0x3e8a12ba	0.26967412
201	0xbee10aa3	-0.43953428
202	0xbfa78536	-1.3087528
203	0xbef7f342	-0.48427778
204	0x3eaecc39	0.34140185
205	0x3d6943b4	0.056949332
206	0x3dbd729b	0.09250375
207	0xbe434d74	-0.19072515
208	0x3ec8f05b	0.39245877
209	0xbe79d64b	-0.24398153
210	0xbddc3d33	-0.1075386
211	0xbf828a05	-1.019837
212	0x3f452460	0.7700863
213	0x3eeed1f5	0.4664456
214	0x3c4cdfc0	0.012504518
215	0xc0d89531	-6.768212
216	0xc00a6e2f	-2.162975
217	0x3ef6d379	0.48208216
218	0xbf888bfa	-1.0667717
219	0xc008b5b9	-2.1360915
220	0x3e56a984	0.20963103
221	0xbe08b172	-0.1334894
222	0xbf09751b	-0.53694314
223	0xbfcd5af8	-1.6043386
224	0x3f002752	0.5006
225	0xc0cecdb8	-6.462612
226	0xbfe620be	-1.7978742
227	0x3f474227	0.77835315
228	0x3e30a650	0.17250943
229	0xbe16674f	-0.14687847
230	0xbd24eefd	-0.04026698
231	0x3e68ff98	0.22753751
232	0xbe75b472	-0.23994616
233	0x3b9541ae	0.004554949
234	0x3e9b35a7	0.3031437
235	0xbf4e5170	-0.80593014
236	0x3ea7861e	0.3271951
237	0xbf83367e	-1.0251005
238	0x3e62dcd6	0.22154555
239	0xbe10f962	-0.14157632
240	0xbf7abc77	-0.97943825
241	0xc026da18	-2.6070614
242	0xc0babb7c	-5.8353863
243	0xbef7409d	-0.48291484
244	0xbec3c488	-0.3823588
245	0xbf1256f8	-0.57163954
246	0xc0160253	-2.3438919
247	0xbcd72c41	-0.02626622
248	0x3f36649c	0.7124727
249	0xc0246599	-2.568701
250	0xbec49bf5	-0.38400236
251	0xbeb13c82	-0.34616476
252	0xbfb52347	-1.4151391
253	0xbf81bc83	-1.0135654
254	0xbee19501	-0.44058993
255	0xbd88a893	-0.06672778

model/activation_2/Relu;model/batch_normalization_2/FusedBatchNormV3;model/conv2d_1/BiasAdd/ReadVariableOp/resource;model/conv2d_1/BiasAdd;model/depthwise_conv2d_1/depthwise;model/conv2d_1/Conv2D f4 [16]
0	0xbf4ab91e	-0.79188716
1	0x3f77f8f4	0.9686425
2	0xbe6c9d71	-0.23106934
3	0x3ece82a5	0.4033405
4	0x3f0f0956	0.5587362
5	0x3da8049c	0.08204004
6	0xbf7ad7f4	-0.9798577
7	0x3fdd19f6	1.7273548
8	0x3f8a3dd6	1.0800121
9	0xbcb2e2a2	-0.021836583
10	0x3fb82ede	1.4389303
11	0x3f3289ec	0.697417
12	0xbfcd1b9b	-1.602405
13	0xbd0f3997	-0.03496703
14	0x3fe655fa	1.7994988
15	0xbe0a72ce	-0.13520357

model/activation_25/Relu;model/batch_normalization_25/FusedBatchNormV3;model/depthwise_conv2d_12/depthwise;model/depthwise_conv2d_12/BiasAdd;model/conv2d_13/Conv2D;model/depthwise_conv2d_12/BiasAdd/ReadVariableOp/resource f4 [256]
0	0x3d983920	0.07432771
1	0x3ebd5ced	0.3698496
2	0xbe76cb32	-0.2410095
3	0xbea64649	-0.32475498
4	0xbe9d58b5	-0.3073174
5	0xbe8713ac	-0.26382196
6	0x3e2bf7d0	0.16793752
7	0xbe66de2b	-0.22545688
8	0xbeaea264	-0.3410827
9	0xbe706879	-0.23477353
10	0xbea5c3c0	-0.32375908
11	0xbe8e16c0	-0.27751732
12	0xbe8c17fd	-0.27362052
13	0xbe86a3cc	-0.26296842
14	0x3d9478f0	0.072496295
15	0xbe904308	-0.2817614
16	0x3c95d4f2	0.018290017
17	0xbddaa05f	-0.106751196
18	0xbeb0d4fa	-0.34537488
19	0xbe275eb5	-0.16344722
20	0xbe73b2b9	-0.23798646
21	0xbeb73a41	-0.35786632
22	0x3bb60b90	0.0055555776
23	0xbe94d5c2	-0.29069334
24	0xbea5b8be	-0.3236751
25	0xbe80f7b4	-0.25188982
26	0xbe91bf44	-0.28466237
27	0xbea4c901	-0.32184604
28	0x3e273496	0.16328654
29	0xbe9c5f2f	-0.3054137
30	0xbe7e01d7	-0.2480539
31	0xbe8405c0	-0.25785637
32	0xbe428d09	-0.18999113
33	0xbeb67610	-0.3563695
34	0xbe8b104e	-0.27160877
35	0xbebd01fd	-0.3691558
36	0xbe8ba4c2	-0.27274138
37	0xbeaca281	-0.3371773
38	0xbe7b842c	-0.24562138
39	0xbb545aa0	-0.003240265
40	0xbe91168a	-0.28337508
41	0xbf7c9fbd	-0.9868124
42	0x3e8f4721	0.27983955
43	0xbe7fa6f2	-0.24966028
44	0x3f335997	0.7005858
45	0xbc5051a9	-0.012714782
46	0xbdce0ca4	-0.10061005
47	0xbeb0f12d	-0.34559003
48	0xbe614bb4	-0.22001535
49	0xbeaa2d33	-0.3323761
50	0xbe4c619c	-0.1995911
51	0xbe9b1a0e	-0.30293316
52	0xbea45ba3	-0.32101163
53	0xbea73636	-0.32658547
54	0xbe9ce6b8	-0.30644774
55	0xbd2ee272	-0.042696424
56	0xbe90af5e	-0.28258795
57	0xbe8d1c6f	-0.27560756
58	0xbe1e8a50	-0.1548245
59	0xbe8efece	-0.27928776
60	0xbe9574d6	-0.291907
61	0x3ed43aeb	0.414512
62	0x3f9e0275	1.23445
63	0xbe88096b	-0.26569685
64	0xbe997362	-0.29970843
65	0xbe3a2ffe	-0.1818237
66	0xbd861e80	-0.06548786
67	0x3ea6e779	0.32598475
68	0x3cbed083	0.023292786
69	0xbe9758c1	-0.295599
70	0xbec9d61e	-0.3942117
71	0x3e87e7b5	0.26543966
72	0x3d02e962	0.031960852
73	0xbed4ab9a	-0.41537172
74	0xbea93d4a	-0.33054572
75	0xbef080b4	-0.46973193
76	0xbebc2961	-0.3675032
77	0xbea3d851	-0.32000974
78	0xbe8b0508	-0.27152276
79	0x3ea82dfc	0.32847583
80	0xbdb5592f	-0.08854901
81	0xbe7f1d6c	-0.24913567
82	0x3e9fb605	0.31193557
83	0xbe868285	-0.26271453
84	0xbeace0f4	-0.33765376
85	0xbec0b360	-0.37636852
86	0xbe8837c6	-0.26605052
87	0xbea14f43	-0.31505784
88	0xbe8a1e85	-0.2697641
89	0xbe2158ce	-0.15756533
90	0x3c10d226	0.008839166
91	0xbe9169fb	-0.2840117
92	0xbe885392	-0.2662626
93	0xbdcd5c37	-0.10027354
94	0xbec077d2	-0.37591416
95	0x3ca10768	0.019656852
96	0xbea24dd6	-0.3170001
97	0xbe759e9a	-0.23986283
98	0x3eed3847	0.46332
99	0x3e5002ed	0.20313616
100	0x3c23a0f4	0.009987105
101	0xbeba6763	-0.36407003
102	0xbe339b07	-0.17539607
103	0x3ed02a61	0.40657333
104	0xbe980cb8	-0.29697204
105	0xbe83e7e0	-0.25762844
106	0xbda9e526	-0.0829566
107	0xbe98fa95	-0.2987868
108	0xbdd65e9c	-0.10467264
109	0xbe93bbcb	-0.28854212
110	0xbe48df36	-0.19616398
111	0xbebc959c	-0.36832893
112	0xbd017548	-0.03160599
113	0xbe8969d4	-0.26838553
114	0xbb548da8	-0.0032433067
115	0xbeb53f34	-0.35399783
116	0xbe4737ba	-0.19454852
117	0xbe9bfa73	-0.30464515
118	0x3e257d4e	0.16161081
119	0xbe8ad1ec	-0.27113283
120	0xbe628d39	-0.22124185
121	0xbcc07ae8	-0.023496106
122	0xbe80e44a	-0.2517417
123	0xbead671c	-0.3386773
124	0xbe11d513	-0.14241438
125	0x3f0c658a	0.54842436
126	0xbe83d898	-0.25751185
127	0xbe96e7ed	-0.2947382
128	0xbe91e2a2	-0.2849322
129	0x3e8e8f64	0.27843773
130	0xbe0e9732	-0.13924864
131	0xbee0cdba	-0.43906957
132	0xbeabc75b	-0.33550534
133	0xbdccdb35	-0.10002748
134	0x3d9bbb81	0.07604123
135	0xbe5c1012	-0.21490505
136	0x3d06d7ed	0.032920767
137	0xbea9fd6f	-0.33201167
138	0xbec1183d	-0.37713805
139	0xbebbebf2	-0.3670345
140	0xbebc5a4c	-0.3678764
141	0xbe8957c0	-0.2682476
142	0xbea922e5	-0.33034435
143	0xbdee26b5	-0.116284765
144	0x3e1c2074	0.15246755
145	0xbd43ebaa	-0.04783217
146	0x3c85445c	0.016267948
147	0xbe6b3008	-0.22967541
148	0x403119d4	2.7672014
149	0xbe3a3812	-0.18185452
150	0xbe93e4fa	-0.28885633
151	0xbe9e6cb0	-0.30942297
152	0xbe87c43e	-0.26516908
153	0xbea7c21d	-0.32765284
154	0xbe74db64	-0.23911816
155	0xbe96d019	-0.2945564
156	0xbe03cd78	-0.12871349
157	0xbece0b1c	-0.4024285
158	0xbe31cb5e	-0.17362735
159	0xbeb5226a	-0.35377818
160	0xbe82dd04	-0.25559247
161	0xbcf7fded	-0.030272448
162	0xbe8bc5d1	-0.2729936
163	0xbe8fc2e2	-0.2807837
164	0xbec3405e	-0.38135046
165	0xbe7e282d	-0.24820013
166	0x3bbe352c	0.0058046784
167	0xbe923307	-0.28554556
168	0xbe87e7c8	-0.26544023
169	0xbea4fe80	-0.32225418
170	0xbe382419	-0.1798252
171	0xbc83d8e0	-0.016094625
172	0xbe8f94fe	-0.2804336
173	0xbe96d214	-0.29457152
174	0xbeaf672d	-0.34258404
175	0xbe9768ac	-0.29572046
176	0x3ef631c0	0.4808483
177	0xbe987d71	-0.29783204
178	0xbe97e3ba	-0.2966593
179	0xbe1ec255	-0.1550382
180	0xbe96f9d6	-0.29487485
181	0xbe865694	-0.2623793
182	0xbec1bb06	-0.37838
183	0xbeaa4df3	-0.33262596
184	0xbe8358c0	-0.25653648
185	0xbe7c80a0	-0.24658442
186	0xbe28e219	-0.164925
187	0xbe917092	-0.28406197
188	0xbeab43a4	-0.33450043
189	0xbe8bf1d8	-0.2733295
190	0xbed5aa51	-0.41731504
191	0xbdcfb495	-0.10141865
192	0xbea68deb	-0.3253015
193	0x3f1da07e	0.61573017
194	0xbe852ec0	-0.2601223
195	0xbe93fbda	-0.28903085
196	0xbe012a86	-0.12613878
197	0xbe943ea1	-0.28954032
198	0xbea7610c	-0.32691228
199	0xbdb97e58	-0.09057301
200	0xbdee78bf	-0.11644124
201	0xbf4593ff	-0.7717895
202	0xbe9fe3a0	-0.31228352
203	0xbe65544c	-0.22395438
204	0xbe9a7b87	-0.3017237
205	0xbdf5af5e	-0.11996339
206	0xbeb393fb	-0.35073838
207	0xbe117069	-0.14203037
208	0x3f511d4d	0.81685334
209	0xbea9cd44	-0.33164418
210	0xbea27da1	-0.31736472
211	0xbe8ed31f	-0.27895448
212	0xbeaed690	-0.34148073
213	0xbe695a8f	-0.22788452
214	0xbebc1d2b	-0.36741003
215	0xbe4e52c1	-0.20148756
216	0xbe7bfe4b	-0.24608724
217	0xbe9fe450	-0.31228876
218	0xbe92665a	-0.28593713
219	0xbe876f09	-0.264519
220	0xbc761838	-0.015020423
221	0xbe3fde6f	-0.18737195
222	0xbd6a985d	-0.05727421
223	0x3dcccef4	0.10000411
224	0xbe8a3a89	-0.26997784
225	0xbec65050	-0.3873315
226	0xbe7176ef	-0.23580526
227	0xbe822f07	-0.25426504
228	0xbe4a20ad	-0.19739027
229	0xbe769cb4	-0.24083215
230	0x3d15751c	0.036488637
231	0xbe68568e	-0.22689268
232	0xbe817218	-0.2528236
233	0xbeb31684	-0.34978116
234	0xbedea12a	-0.43482333
235	0xbe8f141e	-0.27945036
236	0x3dd5a480	0.104317665
237	0xbe6be658	-0.23037088
238	0xbeee78ec	-0.4657663
239	0xbe97ba89	-0.29634503
240	0xbe9aeacf	-0.3025727
241	0x3f0c92ca	0.5491148
242	0xbea5a2c4	-0.32350743
243	0xbc6d99d0	-0.014502004
244	0xbe8ce037	-0.27514812
245	0xbe66eec0	-0.22552013
246	0xbe832dd7	-0.2562091
247	0xbe7b65e4	-0.24550587
248	0xbece8409	-0.4033511
249	0xbe69b8b6	-0.22824368
250	0xbe6f6fe2	-0.23382524
251	0xbe140ee9	-0.14458813
252	0xbe8e81c0	-0.27833366
253	0xbeafb44f	-0.34317252
254	0xbec6c685	-0.38823333
255	0xbdb709ab	-0.08937391

model/conv2d_1/Conv2D f4 [16, 8, 1, 1]
0	0x3f9136c6	1.134484
1	0xbe4c4971	-0.1994989
2	0x3f0892af	0.5334882
3	0xbeb3bbe3	-0.35104284
4	0x3f4437c2	0.7664758
5	0x3ca61862	0.020275299
6	0x3e223ac9	0.15842737
7	0xbcfd6305	-0.030931005
8	0xbd3c4d4a	-0.045972146
9	0x3e745b2c	0.23862904
10	0xbf0b132a	-0.5432612
11	0xbf8140a0	-1.0097847
12	0x3f10e185	0.56594115
13	0xbf128bdf	-0.57244676
14	0x3f7dd1d5	0.99148303
15	0xbeb34679	-0.35014704
16	0x3ef78b44	0.4834844
17	0x3f2adcda	0.6674324
18	0xbd118b27	-0.035533097
19	0xbddd8bd6	-0.10817687
20	0xbe880ede	-0.26573843
21	0xbc0e06b7	-0.008668593
22	0x3e9693d6	0.29409665
23	0xbbd64b86	-0.006539765
24	0x3d33f092	0.043930598
25	0xbe13833a	-0.14405528
26	0x3e84f318	0.25966716
27	0x3e0e6290	0.13904786
28	0x3eac860e	0.33696026
29	0x3d2dce96	0.042433344
30	0xbd9a0611	-0.07520688
31	0xbe8709a0	-0.2637453
32	0xbd80e90e	-0.06294452
33	0x3d8a7d4b	0.06762179
34	0x3e46325f	0.19355153
35	0xbc6f0bb6	-0.014590194
36	0x3e106001	0.14099123
37	0xbbe6cf50	-0.0070437565
38	0x3e708b1a	0.23490563
39	0xbe83201d	-0.25610438
40	0xbd1cbfa0	-0.038268685
41	0x3d2937f7	0.041313138
42	0x3d4cb9f7	0.049982037
43	0x3e09573d	0.13412185
44	0x3dd5d902	0.104417816
45	0x3edfaed9	0.43688086
46	0xbcc60f21	-0.024177136
47	0x3d39cf7a	0.04536388
48	0xbd07f554	-0.033192948
49	0x3d394e78	0.04524085
50	0xbdf0c2ae	-0.11755882
51	0x3f6da3b9	0.92827946
52	0x3e9e75c0	0.3094921
53	0xbd4dd5ff	-0.05025291
54	0x3e669054	0.22515994
55	0x3d2f1000	0.04273987
56	0xbd87f00d	-0.06637583
57	0xbd903296	-0.070408985
58	0x3e9977fc	0.29974353
59	0xbf98a004	-1.1923833
60	0xbe2714dc	-0.16316551
61	0x3e1aeff3	0.15130596
62	0xbe3130dc	-0.17303795
63	0x3e628134	0.221196
64	0x390cf22a	0.00013441654
65	0xbdf9ffe4	-0.122070104
66	0xbe51354e	-0.2043049
67	0x3d71df93	0.059051108
68	0x3ddd3147	0.108004145
69	0xbca3d630	-0.019999593
70	0xbd7d8446	-0.061893724
71	0xbeacece6	-0.3377449
72	0xbdb7d0be	-0.08975361
73	0x3ecb3c62	0.39694506
74	0x3d266c9b	0.040630918
75	0x3da0e43c	0.07856032
76	0x3e4c3b4d	0.19944496
77	0x3dbaae1b	0.09115239
78	0x3ea2446d	0.3169283
79	0xbd4d75a7	-0.05016103
80	0x3dabfb18	0.08397502
81	0xbd9eac76	-0.07747738
82	0xbdc4a902	-0.09602548
83	0xbe215e2a	-0.15758577
84	0xbd5d10cc	-0.053971097
85	0xbef9a716	-0.4876029
86	0xbd0d60ed	-0.034516264
87	0xbdd1aa15	-0.10237519
88	0xbeeea9ee	-0.4661402
89	0xbdee743f	-0.11643266
90	0xbd23146b	-0.039814394
91	0xbd011b4b	-0.03152017
92	0xbd237600	-0.039907455
93	0xbd7c3d21	-0.061581735
94	0x3eb6fd25	0.3574001
95	0xbe0e8882	-0.13919261
96	0x3e859d77	0.260967
97	0xbe6bfa53	-0.2304471
98	0x3e9692b9	0.29408816
99	0x3f9314e4	1.149075
100	0xbe7568e7	-0.23965798
101	0xbef92c89	-0.4866679
102	0x3eea2103	0.4572831
103	0x3f2e37a7	0.6805367
104	0xbdd4a844	-0.103836566
105	0x3de8b432	0.113624945
106	0x3ed4565f	0.41472146
107	0x3d61e2c4	0.0551479
108	0x3d5ac9fc	0.053415284
109	0x3e6fe42c	0.23426884
110	0x3de96069	0.11395342
111	0x3e12cf22	0.14336827
112	0xbf4d0c47	-0.8009686
113	0xbedc4912	-0.43024498
114	0x3f1f8f18	0.6232772
115	0x3e84dcd3	0.25949726
116	0xbf39fd0b	-0.7265174
117	0xbe9323c1	-0.28738216
118	0xbf6a32e9	-0.9148393
119	0xbf020e66	-0.5080322
120	0xbdb43ebc	-0.08801028
121	0x3e3684d0	0.17824101
122	0xbde0d935	-0.10978929
123	0xbe929a9f	-0.28633592
124	0xbec83b03	-0.39107522
125	0xbe03b77d	-0.12862964
126	0x3f8acc0d	1.0843521
127	0xbdc57199	-0.09640808

model/activation_13/Relu;model/batch_normalization_13/FusedBatchNormV3;model/depthwise_conv2d_6/depthwise;model/depthwise_conv2d_6/BiasAdd;model/depthwise_conv2d_11/depthwise;model/depthwise_conv2d_6/BiasAdd/ReadVariableOp/resource f4 [128]
0	0x3fd584d4	1.6681161
1	0xbf8032b5	-1.0015475
2	0xbda9938e	-0.08280097
3	0x3fa35380	1.2759857
4	0xbe879280	-0.26478958
5	0xbd959828	-0.07304412
6	0x3ce235c8	0.027613536
7	0x3fb97004	1.448731
8	0xbdbb1592	-0.091349736
9	0x3f987254	1.190989
10	0xbf1f61a8	-0.62258387
11	0xbe9ca849	-0.3059714
12	0xbdee938d	-0.11649237
13	0x3ee35829	0.44403198
14	0x3fbcb0d4	1.4741464
15	0xbd96f7c0	-0.07371473
16	0x3d5b11c6	0.053483747
17	0x3ec12a05	0.3772737
18	0xbf2272a6	-0.6345619
19	0xbf1aaae2	-0.60416996
20	0xbd969c8e	-0.07354079
21	0xbfdf7c6d	-1.7459847
22	0x3db93fa1	0.090453394
23	0xbe88f298	-0.26747584
24	0xbf9bc87b	-1.2170557
25	0xbe5e9bb8	-0.2173909
26	0x3e9a53c5	0.30142036
27	0xbe87d631	-0.26530603
28	0x3c325cb2	0.010886358
29	0xbfa8b525	-1.3180281
30	0xbe71dc59	-0.23619212
31	0x3d1d039c	0.03833352
32	0xbe1eb050	-0.15496945
33	0x3efa0f5c	0.48839843
34	0x3fbb9720	1.4655495
35	0x3f812078	1.0088034
36	0xbe5543c3	-0.2082663
37	0x3f9366fa	1.1515801
38	0xbfccff71	-1.6015455
39	0xbf2b6079	-0.6694408
40	0xbf3ea5c4	-0.7447169
41	0xbccf179d	-0.025279814
42	0xbf275502	-0.65364087
43	0xbe19804a	-0.14990345
44	0xbf3440d6	-0.7041143
45	0xbf11d464	-0.5696471
46	0xbea4d89f	-0.3219652
47	0xbf0dc16a	-0.5537325
48	0xbe49b4ba	-0.19697848
49	0xbf0f7b77	-0.5604777
50	0x3ec57b24	0.3857051
51	0x400a9efc	2.1659536
52	0xbec37068	-0.38171697
53	0xbea6426f	-0.3247256
54	0xbd24d8de	-0.040245883
55	0x3ef3ea56	0.47639722
56	0x3fbcd230	1.4751644
57	0xbedb0934	-0.4278046
58	0x3f8ffc39	1.1248847
59	0xbeefb1fd	-0.46815482
60	0x3f8957b6	1.0729892
61	0xbf5de7ca	-0.8668181
62	0xbf643ac3	-0.89152163
63	0x3e54fb86	0.20799074
64	0xbdbef5bc	-0.09324214
65	0xbdf85989	-0.121264525
66	0xbde3df06	-0.11126523
67	0xbecde1c6	-0.40211314
68	0xbef44a0e	-0.4771275
69	0x3fd2c06b	1.6464971
70	0xbf3b143e	-0.7307776
71	0xbea6dfd6	-0.32592648
72	0xbeb5347d	-0.35391608
73	0x3d99db4a	0.07512529
74	0xbd071e74	-0.032988027
75	0x3d9ecedc	0.07754299
76	0xbc9699c8	-0.018383875
77	0xbf3d3db7	-0.73922294
78	0xbc11ea20	-0.008905917
79	0x3ff2ae7f	1.8959502
80	0xbeab01f4	-0.33399928
81	0x3bc6ef20	0.0060709864
82	0x3e4385b0	0.19093966
83	0xbe35941c	-0.1773228
84	0xbf3b6f92	-0.7321712
85	0xbe4cd61e	-0.20003554
86	0xbed96216	-0.42457646
87	0xbf134805	-0.5753177
88	0x3eef2a90	0.4671216
89	0xbf1bb5c1	-0.6082421
90	0x4001df0b	2.0292385
91	0x3e35d95e	0.177587
92	0xbf3ae909	-0.73011833
93	0x3fb95343	1.4478534
94	0xbcfc7950	-0.030819565
95	0x3f4e0d72	0.80489266
96	0xbe1b5a74	-0.15171224
97	0xbf4c3a84	-0.7977679
98	0xbed5e0d5	-0.41773096
99	0xbd89291b	-0.06697293
100	0xbddd21d8	-0.10797471
101	0xbe16c185	-0.1472226
102	0x3ff46e2f	1.9096125
103	0xbf0676dc	-0.52525115
104	0xbf044c52	-0.51678956
105	0xbe9e667b	-0.3093756
106	0x3e127c5f	0.14305256
107	0xbd9f408b	-0.077759825
108	0xbe666a2a	-0.22501436
109	0xbdf756ee	-0.120771274
110	0xbec97330	-0.39345694
111	0x3e05d4fa	0.13069525
112	0x3dad9cf7	0.08477204
113	0xbec948f3	-0.39313468
114	0xbc674260	-0.014114946
115	0xbe15b128	-0.14618361
116	0x3ead4234	0.3383957
117	0x3faa10cf	1.328638
118	0xbef749d2	-0.48298508
119	0xbf5a85d5	-0.8536046
120	0x3e2ea66d	0.17055674
121	0xbd8735ba	-0.066020444
122	0xbdd0eb37	-0.10201114
123	0xbdb9c52c	-0.09070811
124	0xbf65f993	-0.89833945
125	0x3ea0038e	0.31252712
126	0x3c20aad0	0.00980635
127	0xbe74893b	-0.23880474
